data.pth (torch, 8106 bytes, 6 tensors)

l1.weight f4 [8, 90]
000000 57 06 fd 3e 5e 2e 47 3f 5b d5 2a 3c 7e d3 9d 3e
       0.494189 0.77805126 0.0104268445 0.30825418
000010 d4 4b f5 be 86 65 05 3e f7 f7 b6 3e 94 31 6d 3e
       -0.47909415 0.1302701 0.35736057 0.23163444
000020 ae 13 d6 3e 06 13 e1 be ef 72 91 3f 96 49 7d 3e
       0.4181189 -0.43959826 1.13632 0.24735102
000030 15 cd 75 bf fa 29 f7 3d 42 82 16 bd 39 c5 77 3e
       -0.96016055 0.12068553 -0.036745317 0.24196328
000040 f6 62 3b 3f f5 12 c8 3e dc 41 02 3f c1 58 99 3d
       0.7319788 0.39076963 0.50881743 0.074876316
000050 63 c7 91 3e c9 71 17 be a2 e4 06 bf 34 0b 12 bf
       0.28472432 -0.147895 -0.52692616 -0.57048345
000060 25 78 dc 3e 0a 65 a3 3e 93 46 ab 3e 64 c9 b7 3e
       0.43060413 0.31913024 0.3345228 0.35895836
000070 5a 27 8b be bc 0c cd be b5 49 e3 be 14 fe 90 3f
       -0.2717846 -0.40048778 -0.44392172 1.1327538
000080 7c b6 a5 3d 56 6c e8 3e 54 90 36 3f 8c 3f ae bd
       0.08091447 0.45395154 0.7131398 -0.08508214
000090 53 84 8c bd 1d 81 9e 3e ae 07 21 3f 83 9b d2 3e
       -0.06861176 0.3095788 0.62902343 0.4113427
0000a0 fc 3b b2 3e 46 63 ea 3e d3 c1 09 3f 43 b0 b4 be
       0.3481139 0.45778865 0.5381138 -0.35290727
0000b0 ed 29 54 bf 75 66 4b 3e 6e bc fc 3e 91 38 81 3f
       -0.82876474 0.19863303 0.4936251 1.0095388
0000c0 f1 2a 96 be 9f 0c 07 3f e1 bc 7c 3d 9e b8 4c bf
       -0.29329637 0.52753633 0.061703566 -0.79969203
0000d0 1e e2 9c 3e bb 0f 85 be 05 14 a4 3e d6 67 57 3d
       0.30641264 -0.25988564 0.32046524 0.05258926
0000e0 62 e0 a3 3e 2f 39 f4 be 66 f3 e4 be 39 f5 ba 3e
       0.32007128 -0.47699878 -0.44716948 0.36515215
0000f0 b8 2b e8 3e 51 c7 49 bf cb 9d 98 3e 16 bc 2d 3f
       0.45345855 -0.7881976 0.29807886 0.6786512
000100 58 5c 5d bd be c7 06 bf aa 8f ff be 40 3f 87 3f
       -0.054043144 -0.5264853 -0.49914294 1.0566177
000110 50 77 30 bf ba ca 35 3f f5 d2 1b 3d 41 fc e4 be
       -0.68932056 0.7101246 0.03804298 -0.44723704
000120 5d fe e5 3e a7 91 dd 3e 8f 47 bb 3e 71 32 bd 3e
       0.44920626 0.43275186 0.36578032 0.36952546
000130 81 ac dc 3e 72 6d 82 3e 61 10 b3 3d cd b0 7a 3f
       0.4310036 0.25474125 0.087433584 0.97926027
000140 dc b8 ff 3e 75 52 7a 3d ca 5b 35 bf 97 08 5c 3f
       0.49945724 0.061113793 -0.70843184 0.8595061
000150 63 69 a7 3e f7 87 fd 3c fb cb 86 3e 1b 27 d8 3d
       0.3269759 0.030948622 0.263275 0.10554334
000160 55 8e 0a 3f 98 10 86 bd 9d 31 02 3f 09 f6 5e 3f
       0.5412343 -0.06546134 0.50856954 0.8709417
000170 52 f7 5b bd 95 17 a2 3e 3c fd 35 bf 3d fc 65 be
       -0.05370266 0.31658617 -0.7108953 -0.22459503
000180 7a 3a 58 3e 9e 94 b4 3e e4 7c c4 3e 07 cb 67 be
       0.21116057 0.35269636 0.38376534 -0.22636043
000190 bb e6 91 3d de 32 2f 3d 8f 00 36 bf a9 9b 1d 3f
       0.071240865 0.04277312 -0.710946 0.61565644
0001a0 2e 62 8e 3e f8 d5 93 3e 32 c1 1f bf 97 9f 05 3f
       0.2780928 0.28874183 -0.6240417 0.5219664
0001b0 29 1a 74 be 6c 53 13 3f fd 5b b4 3e ff af 9f 3e
       -0.23838104 0.57549167 0.3522643 0.31188962
0001c0 d1 2a 1f 3f 27 46 8c be 87 21 89 3e 5f 58 c9 3e
       0.6217471 -0.27397272 0.26783392 0.39325234
0001d0 77 e5 fd 3d 44 a6 2a bf 86 42 03 3f 85 bd df be
       0.123972826 -0.6665995 0.5127338 -0.4369928
0001e0 ac d1 6d be 86 46 63 bf f2 a8 07 3e 33 5b cd 3d
       -0.23224515 -0.88779485 0.13248041 0.100271605
0001f0 51 7a 22 bf bd 0b a6 bc ad 39 bc 3e ac 06 88 bb
       -0.6346789 -0.02026927 0.36762753 -0.004151186
000200 40 6a 1b 3f a7 f5 fa 3d 56 7e c8 3d e1 e4 fb be
       0.60709 0.12253886 0.09789722 -0.49198058
000210 8d 17 4d 3f 17 c8 81 be ed d7 6e 3e 11 8f 1c 3f
       0.8011406 -0.2534797 0.23324557 0.611558
000220 3a d2 d1 bd 94 54 5b 3e 6b 90 8c 3d 4f b9 06 bf
       -0.10245176 0.21418983 0.06863483 -0.5262651
000230 08 ea 06 bf 6f bc 96 bd 12 e6 80 3e 6f 9d 5e be
       -0.52700853 -0.073601596 0.2517553 -0.21739744
000240 42 61 c3 3e 43 2b 8c bc 44 21 db 3c b4 d4 48 3e
       0.3816014 -0.017110473 0.02674926 0.1961239
000250 94 9c e5 3e ea 13 29 3f a2 47 9a be 17 5a 37 3f
       0.44846022 0.6604601 -0.30132776 0.7162184
000260 3b a3 2f be 03 11 25 bf 49 45 c0 3e ec a1 41 3f
       -0.17152111 -0.6447908 0.3755286 0.756377
000270 16 ca 85 3e 0c 63 9b be 44 ea a9 3f 23 ab 24 bf
       0.26130742 -0.30349004 1.3274617 -0.64323634
000280 8e d6 59 3e 89 a8 3f 3f 17 40 17 3f 11 bc eb 3e
       0.21273252 0.7486654 0.5908217 0.4604192
000290 ad 9f 1c bd ff 43 05 bf 3e 7b dc 3e 01 27 bd 3e
       -0.038238216 -0.5205688 0.43062776 0.3694382
0002a0 e5 65 30 be 93 df 82 3f c4 48 fe 3e 31 91 52 3e
       -0.1722637 1.022448 0.4966489 0.20563199
0002b0 5b a6 7b 3f 01 1f 62 3f ec dc b6 bd 5c dd c4 be
       0.98300713 0.8832856 -0.08928856 -0.38450134
0002c0 91 ac c7 3e 83 ef c3 3e 54 f7 07 3f 29 06 a2 3e
       0.38998845 0.3826867 0.5311177 0.31645325
0002d0 5b 07 0c 3f 19 56 39 3f 0f ac 73 3e d5 b4 bb 3e
       0.54698724 0.72397 0.23796104 0.366614
0002e0 d4 6b 49 be c6 f6 ac be f3 dc 15 3f 80 5d 0d 3f
       -0.1967004 -0.33782023 0.58540267 0.55220795
0002f0 08 1e e9 3e 90 71 9b be ae a0 f6 be ba 43 99 be
       0.45530725 -0.3036008 -0.48169464 -0.29934484
000300 db 8c 42 3f 96 af cc 3e 04 e2 f1 3e bf 22 17 3f
       0.7599618 0.3997771 0.4724275 0.59037393
000310 87 bc 0e 3f ee 66 04 3f 75 e9 25 be ba bd ec 3e
       0.5575642 0.5171956 -0.16202338 0.462385
000320 56 63 b2 3e 54 f1 e0 3e 31 d7 1a 3f cd db 26 3f
       0.34841412 0.4393412 0.60484606 0.6517914
000330 42 60 1c 3f ef 12 ab 3e 2f 14 28 3f 3c 9e 86 bf
       0.6108438 0.33412883 0.656558 -1.0517039
000340 4f e7 b3 3e e6 05 07 3f 04 79 96 be cd ca 43 bf
       0.35137412 0.52743375 -0.29389203 -0.76481324
000350 35 1a 8a 3e 86 29 f1 3e 74 8e 0a 3f 15 66 97 be
       0.2697312 0.47101992 0.54123616 -0.2957007
000360 f0 9d 06 3e 4b e7 58 3f 73 91 0d 3f f0 46 5e 3f
       0.13146186 0.84727925 0.5530006 0.8682699
000370 9a 31 4e 3f 7a 4e 85 3e db 8c 33 3f 3c 87 e8 be
       0.80544436 0.26036435 0.70136803 -0.45415676
000380 6c ef 2c bf 3e c7 54 3f 73 ed bb 3d bc 41 d6 3e
       -0.6755283 0.8311652 0.09176149 0.41847026
000390 f7 b9 54 be fc a0 8e 3b a7 84 b2 3d 61 74 e3 bd
       -0.20774065 0.004352687 0.08716708 -0.11106182
0003a0 6b 51 8d 3e 2c 0a 58 be 54 04 9d 3e 98 01 29 3e
       0.2760118 -0.2109763 0.30667365 0.16504514
0003b0 45 ae d5 be 3c 0f 54 be 6f 2a 0e be 98 55 f2 3e
       -0.4173452 -0.20708936 -0.13883375 0.47330928
0003c0 59 07 2d bf bf a6 44 be 56 68 5b be 86 f2 0b 3f
       -0.67589337 -0.19204234 -0.2142652 0.54666936
0003d0 eb 04 99 3e c4 32 0b 3f 82 b1 0d 3e 37 1b e2 be
       0.29886565 0.5437434 0.13837245 -0.44161388
0003e0 a3 ef 0e 3f 88 dd 0e bf 8b c7 aa 3e 25 e3 8c be
       0.55834407 -0.5580678 0.33355364 -0.27517048
0003f0 e3 df de 3e 54 00 be 3e 66 44 a9 be 60 67 15 3e
       0.43530187 0.37109625 -0.33059996 0.14590216

l1.bias f4 [8]
000000 81 10 9e 3f 35 03 36 3f ae 9a 86 3f 88 05 91 3f
       1.2348787 0.71098644 1.0515954 1.1329813
000010 95 98 4d 3f df 0d 77 3f 9d b9 5e 3f 46 4b 25 3f
       0.80310947 0.9650554 0.87001973 0.64567983

l2.weight f4 [8, 8]
000000 c2 3b bf bf db aa a7 3f 33 1b 06 3f 04 d5 ac 3f
       -1.4940112 1.3099016 0.5238525 1.3502507
000010 39 ad b0 3f d5 86 ca 3f 97 3b 03 bf 48 43 15 bf
       1.3802863 1.5822397 -0.512628 -0.5830579
000020 cb 7f fe 3f 3c 0e c7 3f 79 42 a5 3f b4 16 d0 3f
       1.9882749 1.5551219 1.2910911 1.6256928
000030 78 fe 3c 3f 19 5d a9 bf 3d ba da bf 19 1f 42 3f
       0.7382579 -1.3231536 -1.7088085 0.758287
000040 4c ce 80 3f 1d 0c bc 3e 3e c6 15 3d 87 4d c9 bf
       1.0062957 0.36727992 0.03656601 -1.5726784
000050 3d ec 82 3f d5 59 9e 3f 3b 79 d0 3f 1a d3 37 bf
       1.0228344 1.2371165 1.6286997 -0.7180649
000060 43 ba b0 be c4 26 f6 3f 17 c9 68 3e fc da 5f bf
       -0.34517106 1.923058 0.2273296 -0.8744352
000070 04 c2 f6 3f 63 d4 08 3e ab b4 e9 3e d0 c3 d5 3f
       1.9277959 0.13362269 0.4564565 1.6700382
000080 82 86 a9 bf 49 12 e2 bd 6f d8 09 bf 65 f8 58 3f
       -1.3244174 -0.11038644 -0.53845876 0.8475402
000090 45 e7 04 3f 79 54 03 40 fa 64 dd 3f b1 6d 7b 3f
       0.5191539 2.0520308 1.7296441 0.9821425
0000a0 cc ff 1d bf 68 83 83 3f 4d c9 c7 3f 87 c5 1f 3f
       -0.6171844 1.0274477 1.5608307 0.6241078
0000b0 f3 37 8f bf 5f 3d 98 3e 1f 66 d4 3f 2a 32 8c 3f
       -1.1188949 0.29734322 1.6593665 1.0952809
0000c0 ff 62 02 40 ef 7a 91 be 5e f0 d6 3f 88 6b a6 3f
       2.0372922 -0.28414103 1.6792104 1.3001566
0000d0 f7 f5 7f bf 1b 61 c6 3f e3 c3 5e 3e ce 3b ca bf
       -0.9998469 1.5498384 0.21754412 -1.5799501
0000e0 22 a2 90 3f 34 2b ad bf 87 42 d1 bf 13 bd 6b 3f
       1.1299479 -1.352881 -1.6348428 0.9208538
0000f0 dc 01 ac 3f 5d 34 0f bf d7 48 90 3e 5c fb 91 3f
       1.3438067 -0.55939275 0.28180572 1.1404834

l2.bias f4 [8]
000000 e5 bb d8 3e a9 9b db 3e 33 97 2d 3f ff e8 32 be
       0.42330852 0.42892197 0.67808837 -0.17471693
000010 6e f1 f6 3e cc 36 83 3b 86 74 34 3f e9 37 cc 3e
       0.4823107 0.004004335 0.704903 0.39886406

l3.weight f4 [25, 8]
000000 ee 2e eb 3e 93 c4 fe bd 86 89 8b bf 75 22 cc 3d
       0.45934242 -0.12439837 -1.0901344 0.0996751
000010 c2 04 b2 3e 54 8f b3 bf 90 e7 00 c0 78 8b b7 3e
       0.34769255 -1.4028115 -2.0141335 0.35848594
000020 c0 77 3c bf 13 27 5e 3e 46 e4 39 bf 86 6c a5 3e
       -0.73620224 0.21694593 -0.7261394 0.3230936
000030 a4 30 19 be 44 2e 5d 3d 8a 8f 9c bf 6e 81 d6 bd
       -0.14959961 0.0539992 -1.2231305 -0.104739055
000040 30 4c 95 bf 04 fc c6 be fe da ae 3e 99 f5 eb 3e
       -1.1663876 -0.38864148 0.34151453 0.46085814
000050 42 03 2d be b0 dd de bf be d2 02 c0 db 27 de 3e
       -0.16895774 -1.7411404 -2.0441127 0.43389782
000060 a5 8a 42 3e 69 51 12 be 00 93 88 be 09 5b 2f 3f
       0.18998201 -0.14288868 -0.26674652 0.68498284
000070 92 4c ea bc a2 47 4a 3e b7 b6 f1 bf 32 98 c6 bf
       -0.028600965 0.19753888 -1.8883885 -1.5515196
000080 90 e5 1e 3f a8 a2 11 be 17 fd be bf 58 34 ea bf
       0.62069035 -0.14222205 -1.4920987 -1.8297224
000090 5e e1 76 3e 61 73 5b be ee b8 11 3f bd 86 2f bf
       0.24109408 -0.21430732 0.56922805 -0.6856497
0000a0 65 e3 0a 3f ec 9b 00 c0 72 75 80 3c c4 64 36 3f
       0.54253227 -2.0095167 0.015681002 0.71247506
0000b0 bb 70 d3 3e f0 19 77 3d 81 af de bf 0f b1 b9 bf
       0.41296944 0.06032747 -1.739731 -1.4507159
0000c0 57 a9 ed be fe b5 a6 bd aa 4f 8c 3e 53 a5 1f bd
       -0.4641826 -0.08140181 0.2740453 -0.038976025
0000d0 f4 9a be bf 0a 69 a4 3e f5 f8 44 3d 7f 93 06 c0
       -1.4891038 0.32111388 0.048088986 -2.1027524
0000e0 02 05 32 bf 68 8a 24 3f c0 ac da be 44 d5 1d c0
       -0.6953889 0.6427369 -0.42709923 -2.4661417
0000f0 f0 6e 7a bf 6f 21 61 bf dc 6f ad 3e 63 86 0d 3f
       -0.9782553 -0.8794164 0.33874404 0.5528318
000100 07 bc 43 3f cc d7 94 bf 00 1b 0a 3f 42 5a d5 bd
       0.7645878 -1.1628356 0.5394745 -0.10417606
000110 66 74 38 3e 42 3c e2 be 12 78 19 bb d2 80 f9 bf
       0.18013152 -0.44186598 -0.0023417515 -1.9492438
000120 26 fc 51 3e e2 2f d9 bf 9d d2 f9 be ad 0b cc bf
       0.20506343 -1.6967738 -0.48793498 -1.5941063
000130 c6 4e a3 3e 24 0a 5f 3f 3c 82 11 3f b4 64 12 c0
       0.31896037 0.8712485 0.56839347 -2.2873964
000140 4c 07 3e 3f bb 58 09 3f 39 e3 0d c0 54 f6 91 3d
       0.74229884 0.53651017 -2.2169936 0.071270615
000150 0a 87 3e be a9 22 05 3d c8 98 9c bf a7 8c c8 bf
       -0.18606201 0.032503758 -1.2234125 -1.5667924
000160 aa 48 b5 bf 53 e3 95 3e 67 0f 47 3f f4 03 50 3b
       -1.41628 0.29274997 0.7775788 0.0031740637
000170 66 41 b1 bf 72 30 c1 bf 98 dd 4c be 48 69 32 be
       -1.3848083 -1.5092909 -0.20006406 -0.17422974
000180 9d 39 3a bf cc e5 cd 3e 4e 7a 3a bf 33 0f f4 3d
       -0.7274416 0.40214384 -0.7284287 0.119169615
000190 56 95 51 bf 31 8e da bf 06 97 a5 bf bf bd 20 3f
       -0.81868494 -1.7074643 -1.2936714 0.6278953
0001a0 fc 4c 6f 3e cb 50 84 be 8c 17 11 3d 47 f6 f0 be
       0.23369211 -0.2584289 0.035422847 -0.47062895
0001b0 ad 1c 04 3e f6 42 14 c0 60 33 0d bd 08 55 44 3e
       0.12901564 -2.316587 -0.034472823 0.19173062
0001c0 88 3a f8 be 3d 80 88 bf 06 ad c3 bf 24 a3 94 3e
       -0.48482156 -1.0664135 -1.5287178 0.29030716
0001d0 05 da c2 3e 2e b4 df 3e 4e 91 d8 bf f5 29 aa 3e
       0.3805696 0.43692154 -1.6919343 0.33235136
0001e0 4e c7 9f bf 0e bb c5 3c 33 eb 43 3f 15 6e 20 c0
       -1.2482698 0.024137046 0.7653076 -2.5067189
0001f0 31 3b 08 bf a3 82 74 3e 2d 43 2b 3f d5 3b f2 bf
       -0.5321532 0.23877959 0.6689938 -1.8924509
000200 45 67 aa 3c 98 4c 33 3f 15 29 de bf 6f a0 f8 bf
       0.020801196 0.7003875 -1.7356287 -1.942396
000210 ad a0 b3 bf 14 d7 c8 3e 04 9d 34 3f 2f c5 f6 bf
       -1.4033409 0.39226592 0.70552087 -1.9278926
000220 8a d3 21 3e dc 92 81 3e 85 9c e4 3e 80 b1 34 bf
       0.15803352 0.25307357 0.44650665 -0.70583344
000230 e0 12 7c bf 07 49 99 bf ba c6 f4 3e 10 f7 a0 bf
       -0.984663 -1.1975411 0.47807866 -1.2575397
000240 cf 62 bf bf cf 4f 44 be 9f a2 4c 3e 2c 00 60 bf
       -1.4952029 -0.1917107 0.1998391 -0.8750026
000250 9d 88 71 3e a1 38 ff 3d 4e 4e f2 bd 6e 94 69 bd
       0.2358727 0.12461973 -0.11831342 -0.05702632
000260 e1 9d 70 3e f7 ca 96 bd 6e 3c 8c bf 6f e5 04 be
       0.23497726 -0.07362931 -1.0955942 -0.12978147
000270 02 1f 35 3c cc c6 97 3e 11 c1 19 3d f2 6e eb bf
       0.011054756 0.29643857 0.037537638 -1.8393233
000280 2a f0 9f bf 77 c2 01 c0 3f 21 91 3d e2 05 c1 bd
       -1.2495167 -2.0274942 0.07086419 -0.0942495
000290 71 3f 06 3f c7 d1 31 3f 5b 60 58 bf ba f0 4e bf
       0.52440554 0.6946072 -0.84522027 -0.8083607
0002a0 bd 1b 75 be 37 38 25 3f 24 49 a2 bf ca f1 7b 3e
       -0.23936363 0.645389 -1.2678571 0.24603954
0002b0 c6 08 dd bf 5b 50 96 bd 5a 5e 55 bd 60 4b 7f bf
       -1.7268302 -0.07339545 -0.052091934 -0.9972439
0002c0 93 be ad be 4a fe ea bf 68 e3 17 3f d6 09 35 3e
       -0.3393446 -1.8358853 0.5933137 0.17679533
0002d0 9b e0 bf 3e 03 dd 85 be e0 1a 19 c0 21 0d 5d bd
       0.37476048 -0.2614518 -2.3922653 -0.0539676
0002e0 9e e5 5b be 64 73 26 c0 9b 09 34 3f 8e 63 19 be
       -0.21474311 -2.600793 0.70327157 -0.14979383
0002f0 39 d7 00 3e 44 c1 89 bf 63 85 86 3d 9f 6d f8 bd
       0.12582101 -1.0762105 0.0656841 -0.121302836
000300 3a 34 c6 bf cc 8a b5 bf 32 ff 7a 3e 7f 8f 91 3d
       -1.5484688 -1.4182982 0.24511412 0.07107448
000310 69 48 57 3e cb 28 cf 3e b4 20 57 3e 94 d0 0f c0
       0.21023716 0.4046081 0.21008569 -2.2471056

l3.bias f4 [25]
000000 92 4a 8e be bf 61 e4 be a1 12 dc 3b 80 9f 2b bd
       -0.27791268 -0.44605824 0.006716088 -0.041900158
000010 2e dd 2a be e3 e6 eb 3d 73 40 19 bf 55 d2 26 3f
       -0.16685936 0.115186475 -0.59863967 0.6516469
000020 a4 da 01 3f 21 6e 65 be e6 e5 b3 be cb e5 09 3e
       0.50724244 -0.22405292 -0.35136336 0.13466565
000030 34 9b 2a be 47 af d5 be d3 ef 8b 3e 2e bf 07 3f
       -0.16660768 -0.41735289 0.2733141 0.5302609
000040 e5 6f ef bc 23 bd 11 be 73 c5 e1 bc dd 74 4f bf
       -0.02922816 -0.14232306 -0.027559971 -0.81037694
000050 8b 24 5a bd 64 c0 6a 3e 4c 96 4e 3e f9 0e 9f 3e
       -0.053257506 0.22924954 0.20174521 0.3106611
000060 85 31 b9 be
       -0.36170593
